results/reward_model.pt (torch, 529146 bytes, 5 tensors)

net.0.weight f4 [256, 384]
00000000: 8fc1 2cbd 0c96 b4bc 0676 953a fdf9 be3c
00000010: 133d 2c3d f19c 4fbd 8911 65bb 499a 09bd
00000020: acf7 08bc f969 0f3d ce42 01bd e188 5a3c
00000030: 085c 44bb 62e2 38bc e3fa 563c ff43 ae3b
00000040: 16df d7bb 6da2 21bd 85ef 563d 1283 543d
00000050: a70a 213d c022 313d f283 183c 3e76 633d
00000060: adfd 25bc ad0e 0abd 8441 10bd b94f 7a3d
00000070: f935 21bd a5e2 58bd a961 88bc 0db4 b0bc
00000080: ba15 03bd 8f54 f4bc 869c 0ebd df1b d2bc
00000090: 2faa eabc 2220 46bd e523 fd3c f275 003d
000000a0: bf32 703d a96a 55bd eb62 033d 8e72 ad3c
000000b0: 2e7a aebc bd02 5d3c 0993 b33c 766b 483d
000000c0: 59f5 9d3b a05d 733c 2ad2 e93b d46e 50bd
000000d0: b318 ffbc 91c3 b7bc 33b1 e8bb 14b4 4e3c
000000e0: 3bf8 03bc ecf3 c33c e180 893c c1b9 87bb
000000f0: c5c2 72bc 0c51 a33c cedf 87bc 400b f4bc
00000100: d061 9fbc 65db d3bc 39f0 8cbc ad39 463c
00000110: 73dc aebc f07c 44bc 98fc 173c 18df 693d
00000120: 5dd8 883c eeed 68bd aa00 6dbd 640f a33b
00000130: 80c4 863c d063 973b ac36 14bd 6782 f9bb
00000140: 6224 c7bc c4a7 243c 2164 b2bc a758 68bb
00000150: 6c6b 783d 9fa5 783d 194b 3b3c 44f1 05bd
00000160: 9ad3 6ebd 7a10 e2bc 32c0 543d d42c f23c
00000170: 595e cbbc 9645 13bd 0599 bfba 60ec d5bc
00000180: 3f90 04bd d7bc af3c 278c 3cbd 002d 9dbc
00000190: d0c8 22bd f405 663d c448 fa3c 5f94 6e3d
000001a0: b972 b03c f3a4 853c 23ac 423b b826 34bd
000001b0: 86a5 d2bc 1f54 f33c d4c5 0cbd aff7 ed3c
000001c0: bbd5 52b7 8b51 bcbb 3d1f cd3c 531e 883c
000001d0: ae6d 9bbb 251a 0fbd 3dfd 02bd 4ae8 633c
000001e0: 548f 1a3d 9f7f 2c3d 54b1 32bd 37ee df3c
000001f0: 1775 433d 5126 4dbc d085 583c f57a 133d
00000200: 2485 d73c bf53 2ebc 1e4d 903c f732 86bc
00000210: a91c 22bd db76 37bc fb4d 4fbd 72b7 323d
00000220: 0f8e 013d fecd 83bc 28ba e53c 3720 33bd
00000230: 9061 103d 869e 29bd 61d1 d63c e277 a43c
00000240: 69f0 07bc 6841 0dbd 26a9 563b d923 e4bc
00000250: 7d38 3dbd adaa b73c 8342 c53b dd72 0d3d
00000260: 07c4 273d 66dd 26bc f4d8 ff3c 3c99 54bd
00000270: fd5d 15b8 1fb7 d33c 1b4c 5b3d 7164 f43c
00000280: 388e ab3c da41 d7bc 0c25 6e3c a09b dfbc
00000290: 24fe dab9 d060 ae3c 0403 633d c408 3b3d
000002a0: a09b 2bbd 85ac 973c d586 26bb a4c6 26bd
000002b0: 43c3 c13c f0b8 e5bc 05eb 0ebd 6bb0 4c3b
000002c0: eccc 003d 7db2 28bd 7faf dfba e6ca 1abd
000002d0: 7db2 aa3c 5e04 cb3b 4e18 a6bb 6418 df3c
000002e0: cd4d bbbc 4522 543c 9b90 3e3c 8810 e03c
000002f0: f34c 973c 000e 153d 448c 99bb d267 853c
00000300: 53f5 69bc d47c ffbc 2626 d83c 5c46 103d
00000310: 5e2f 07bd 38af d6bc 22a0 f4bc 2955 4cbd
00000320: 5331 99bc cc05 583c 5ea1 48bd b51a 3e3c
00000330: c16e bbbc 235c c1bc 2877 003d 171f 56bd
00000340: 519a 11bc 3484 4fbb 49ed d2bc eb16 193d
00000350: 2728 b13c 2957 e2bc dcd7 1f3d 7c44 ebbb
00000360: a9fa 11bd 859a b5b8 35c3 5b3d 1b54 0ebd
00000370: 85c4 10bd a5f0 8abc e015 d3bc 5114 27bd
00000380: b6ac 7abc f1f4 edbb e7f8 2ebd 9f41 013d
00000390: 1f16 ccbc 0235 52bc dae3 18bd bf8d 67bd
000003a0: 82e1 6e3d a519 a03b 8c8b 163d 513e d53c
000003b0: 202e 37bd f2da febc 788d 433c 2bbf 11bc
000003c0: f310 0a3d f934 d93a 4566 5e3c 8602 0abd
000003d0: ecf1 50bc 8dd6 66bc bae2 0e3d 8cc6 fb3c
000003e0: 757e 233c 9cb6 7fbd 493c 1fbc bace bfbc
000003f0: d356 1b3d a382 073d 0aa1 44bd 7ec8 e6bc
-0.04217678 -0.022044204 0.0011402972 0.023312563 0.042050432 -0.05068678 -0.0034953079 -0.033594403
-0.008359831 0.035013173 -0.03155785 0.013338299 -0.0029962081 -0.011284443 0.0131213395 0.0053181644
-0.006587873 -0.039461542 0.052474517 0.05188281 0.0393168 0.04324603 0.009308802 0.055532686
-0.010131282 -0.033705402 -0.03521873 0.061111186 -0.039358113 -0.05295052 -0.01664813 -0.02157023
-0.032003142 -0.029825477 -0.03481724 -0.025648056 -0.028645603 -0.048370488 0.030900905 0.03136248
0.058642145 -0.052103672 0.032076757 0.021172788 -0.021298494 0.013489422 0.021920698 0.048930608
0.0048205075 0.014853865 0.007135649 -0.050886944 -0.031139707 -0.02243212 -0.007101202 0.012616176
-0.008054788 0.023920022 0.016785087 -0.0041420166 -0.0148169445 0.019936107 -0.01658621 -0.02979052
-0.01945582 -0.025861451 -0.01720439 0.012098712 -0.021345353 -0.011992678 0.009276532 0.057097524
0.016704733 -0.056867532 -0.05786196 0.0049762 0.01645112 0.004620053 -0.03618495 -0.007614422
-0.02430934 0.010049764 -0.02177626 -0.0035453232 0.06064932 0.060704824 0.011431479 -0.032700792
-0.058307268 -0.027595747 0.051941104 0.029562391 -0.024825262 -0.035955034 -0.0014617747 -0.026113689
-0.032364126 0.02145235 -0.046032097 -0.019186497 -0.03974229 0.05615802 0.030552275 0.058246966
0.021539079 0.016314005 0.0029704652 -0.043982238 -0.025713693 0.029703198 -0.03436835 0.029048769
-1.2566738e-05 -0.0057470254 0.02503931 0.016616022 -0.0047432994 -0.034937043 -0.031979788 0.0139103625
0.037734345 0.042113896 -0.043626145 0.02733527 0.047719087 -0.012521342 0.013215497 0.036005933
0.026308604 -0.010640084 0.017614897 -0.016381724 -0.039578114 -0.011197771 -0.050611477 0.04363198
0.03162962 -0.016089436 0.028042868 -0.043731894 0.035249293 -0.041410945 0.026222887 0.020076696
-0.008297064 -0.034486204 0.003275463 -0.027849125 -0.04619645 0.022420252 0.0060198917 0.03453337
0.04095843 -0.010184621 0.031231381 -0.05190395 -3.56119e-05 0.025844155 0.053539377 0.02983305
0.020941839 -0.026276518 0.0145352 -0.027295887 -0.0004176955 0.021286398 0.055422798 0.045662656
-0.041896462 0.01851488 -0.0025409956 -0.040716782 0.023652678 -0.028042287 -0.0348921 0.0031233083
0.03144543 -0.041185845 -0.0017065852 -0.037791155 0.020837063 0.006195589 -0.0050688153 0.02723331
-0.022864247 0.012947624 0.011631156 0.027351633 0.01846931 0.036390305 -0.0046859104 0.016284857
-0.014279681 -0.031187452 0.026385378 0.03522335 -0.033004157 -0.026206598 -0.029861514 -0.049885903
-0.018700277 0.013184976 -0.048982017 0.011603047 -0.02287996 -0.023603505 0.031363636 -0.052275743
-0.00888689 -0.0031664493 -0.025747912 0.037375372 0.021625591 -0.027629452 0.03902422 -0.007179795
-0.03563944 -8.659534e-05 0.05365296 -0.034748178 -0.035343666 -0.016960451 -0.025767267 -0.04079086
-0.015299967 -0.0072618653 -0.04271784 0.03155672 -0.024912892 -0.012830021 -0.03732667 -0.056531664
0.05832053 0.0048858696 0.036754176 0.026030691 -0.044721723 -0.03111026 0.011935584 -0.008895676
0.03370757 0.0016571573 0.013574188 -0.033693813 -0.012752991 -0.014089239 0.034884192 0.030734323
0.00997888 -0.06243001 -0.009718963 -0.023414005 0.0379246 0.03308357 -0.04800514 -0.028171774

net.0.bias f4 [256]
00000000: ec47 dcbc 25d6 b63b f49b 62bc 885a 97bb
00000010: a2f4 72bc 7b14 9ebc 19d1 1e3d aa6d 253d
00000020: 7249 873a 594f 043d 92d3 353d 3540 0fbd
00000030: b6aa 06bd 354e bbbc ae57 8f3c f6d2 5cbc
00000040: 3f2a 30ba edf1 07bb e78c a13c df4b efbc
00000050: b763 ccbc 8975 bbbc 94fc 7cbb 57b8 0cbd
00000060: 8321 7c3d 1785 a1bc f9c5 323d 921e dabb
00000070: f161 ebbb 996c b3bc 6c6b 923d 66f5 43bd
00000080: eb08 3cbd 3290 53bc 2682 bf3c 3028 843d
00000090: 8146 f63c 1adc 86bb 4b5b 55bc 7455 edbc
000000a0: de16 44bc 026e 29bc d8c7 593d 7a88 bb3c
000000b0: b7fa 543c 2208 6c3c 55f9 2bbd 333c d43c
000000c0: fa8c 01bd 97de 923c e076 fbbc e91b 16bd
000000d0: c8af 47bd 34f0 1bbc 5486 a73c b829 83bc
000000e0: 706c 11bd 048a 8c3d 8f33 703d 1036 bdbc
000000f0: fac0 f33b 604d ca3a 54f2 33bd 8e31 2dbc
00000100: 9cb9 a8bc f406 2bbc b4b1 bebc 73a3 8abb
00000110: dfd6 01bc ec58 0a3d ac77 083d 1a4a 743c
00000120: 2071 1bbc 0eee 31bd c4af 603c 1fbf 48bd
00000130: c615 193d 2986 33bd 92c3 e6bb 7ea0 d3bb
00000140: bccc d43c 2708 813d 20ec cc3c f3ca eabc
00000150: ba91 2e3d 0896 34bd 828e c2bc baba fd3b
00000160: 8347 feba 0ccd 1c3d 49bc 85bc 8cc1 45bd
00000170: a0a4 ca3b c51c 853c 8a10 713d 66e0 0bbd
00000180: e776 b93c 3cda 613d 5aab 3fbb d584 4bbd
00000190: e0f0 863d 8501 fd3c 0e6b 3f3d bd18 18bd
000001a0: 8f3b 903d abb3 1ebd 35fb ebbc c104 203d
000001b0: f5b9 353d 5f1f 2bbc 8ae0 e93c b0f3 babc
000001c0: 2896 a53a 2423 883b 041a 31bc 6f47 6bbc
000001d0: a71c 5b3d 8279 4d3d d151 1b3d d35d 8a3c
000001e0: cab8 2abd 43be 4f3d 8c9f 943b a9f9 cf3c
000001f0: 09bf 0b3d 5ca1 0abd 3c0a b23c 40b0 53bc
00000200: f5c4 6e3c 5bd6 87bc 391d 50bb fb02 3e3d
00000210: 3931 dcbb e076 553c f677 faba 3613 c43b
00000220: e1d4 01bd d4ff 753d 2baf 33bd 3bc4 9538
00000230: df15 423c 79fe 183d c62a a83c 3107 3d3d
00000240: d161 853c 38c5 e53c 3a55 f63c 72ba cd3c
00000250: b8ea 8a3b 56d6 123d 7a6f d43c cc66 9c3c
00000260: 6efc 29bd b444 6abc 1780 4bbc 07eb 243d
00000270: ae78 22bd 7c1d cc3c 3c92 173d 05e4 4a3d
00000280: 8e35 233d 9e65 e0bc 9f19 4d3d cf35 3fbb
00000290: cfc0 4e3d 1ebb cb3c 0d03 263d 58f0 fa3c
000002a0: 0107 e2bc 8372 033d 0bfd cebc cf0f 8a3c
000002b0: d7e5 28bc b6c0 383d 6163 bd3a 00af 833c
000002c0: 8842 4fbc 0654 013d 4e84 e5bc b66c ad3c
000002d0: 53a3 643d b367 ecbb c612 b7bc f27d 3d3d
000002e0: cd14 7a3d 5f1d 8a3d 8a47 dcbb d549 c23c
000002f0: 1356 abbc f78a b93c 602b 733c d112 523d
00000300: ee4b 1fbd 909d 11bd 656b 18bd 2366 763c
00000310: da92 913b 1f65 623d e6d9 5c3c d2d7 95bc
00000320: b76b 1a3d da3a 343d 4f06 d03b d74b 19bd
00000330: cfc6 ff3c 2aae 8e3c 286d 0d3d 82cc 443b
00000340: 4eb0 f8bc 9a12 1c3d b977 373d ce53 a93b
00000350: c8cb 3e3d ab1b d03c affb a1bc 7e51 a03c
00000360: 1154 d4bc 0d3f c8bc 9c9c 423d 19f7 dfbb
00000370: bcbe 1ebd 50d8 1cbd 6543 a53c 2530 983c
00000380: 3ced 07bd 654e 033c 15fe e63c fd35 e1bb
00000390: f06e 863c 30cb 013d f3ce 1cbd 91b3 15bd
000003a0: 9061 19bd 02a6 8b3c 0eeb 663c 4ae9 043b
000003b0: 64a4 b83c 68fd 1e3d 4166 dbba 5d7e 823d
000003c0: c8bd 8f3d 3e1a 603d 577d b3bc 396e a3bc
000003d0: ab6d 34bb 3bf3 81bb 8287 d33c 6e18 893b
000003e0: 0ec2 41bd 4384 523d ea18 453c 0935 d23c
000003f0: 5edb 02bd a399 35b9 7441 263d b460 573b
-0.026889764 0.0055797272 -0.013831127 -0.0046189465 -0.014828833 -0.019296875 0.03877363 0.040387787
0.0010321571 0.032302234 0.044391222 -0.034973342 -0.032877646 -0.02286444 0.017497864 -0.013478031
-0.00067201623 -0.0020743564 0.019720508 -0.029210983 -0.024949891 -0.022883194 -0.0038602697 -0.034355488
0.061555397 -0.019716782 0.043645833 -0.0066564763 -0.0071833064 -0.02190237 0.07149395 -0.047841452
-0.045906942 -0.012912797 0.02337749 0.06452978 0.030062916 -0.0041155936 -0.013022254 -0.028971411
-0.011968343 -0.010341169 0.0531691 0.022892226 0.012999228 0.014406236 -0.04198583 0.025907611
-0.031628586 0.017928405 -0.030696332 -0.03664771 -0.048751622 -0.009517718 0.020449795 -0.016011104
-0.035503805 0.06862262 0.05864292 -0.023097068 0.007438776 0.0015434437 -0.043932274 -0.010570897
-0.020596318 -0.0104386695 -0.023278095 -0.0042309104 -0.007924764 0.03377621 0.033317253 0.014910245
-0.00948742 -0.043439917 0.013713781 -0.049010392 0.03737428 -0.043829117 -0.0070423568 -0.006458341
0.025976531 0.06300383 0.025014937 -0.028661227 0.042619444 -0.044088393 -0.023749594 0.007743207
-0.0019399974 0.038281485 -0.016325133 -0.048280284 0.0061841756 0.01624907 0.058853664 -0.03414955
0.022639705 0.055139765 -0.002924642 -0.049687225 0.06588912 0.030884514 0.046732955 -0.037132967
0.0704261 -0.038745563 -0.028806308 0.039067034 0.044366796 -0.010444491 0.028549451 -0.022821277
0.0012633251 0.0041545797 -0.010809425 -0.014360293 0.053494122 0.050164707 0.037919823 0.016890442
-0.041680135 0.050718557 0.004535621 0.025387602 0.034117732 -0.03384529 0.021733396 -0.012920439
0.014573325 -0.016581705 -0.00317557 0.04638956 -0.006719735 0.01302883 -0.0019109237 0.0059837354
-0.031697158 0.06005843 -0.043868225 7.1414244e-05 0.011846035 0.03735206 0.020528208 0.046149436
0.016281994 0.028048143 0.030069936 0.025113318 0.0042394064 0.035848938 0.025932062 0.019091986
-0.0415005 -0.014298607 -0.012420676 0.040263202 -0.03966587 0.024916403 0.037004694 0.049533863
0.039845996 -0.027392205 0.050073262 -0.002917636 0.050476845 0.024869498 0.040530253 0.030632183
-0.02759123 0.03209163 -0.025267145 0.016853241 -0.010308704 0.04510566 0.0014449173 0.016074657
-0.01265014 0.03157427 -0.02801719 0.021170001 0.05581982 -0.0072145103 -0.022347819 0.04626269
0.061054993 0.06743883 -0.0067223953 0.023716846 -0.020915067 0.022649271 0.014841884 0.051287476
-0.03889077 -0.035550654 -0.037211794 0.015039 0.004442555 0.055272218 0.013479685 -0.018291388
0.03770038 0.044001438 0.0063484083 -0.037425842 0.031222729 0.017417032 0.034527928 0.0030029123
-0.030357506 0.038103677 0.04479191 0.005167461 0.04658106 0.025403818 -0.019773332 0.019570109
-0.025918992 -0.024444127 0.047512636 -0.0068348763 -0.038756117 -0.03829223 0.020173738 0.018577645
-0.03318523 0.008014296 0.028197328 -0.006872891 0.016410321 0.031687915 -0.0382833 -0.0365482
-0.03744656 0.017046932 0.014094127 0.0020280653 0.022539325 0.038815886 -0.0016738848 0.06371758
0.0701862 0.054712527 -0.021910353 -0.01995002 -0.0027531188 -0.003965763 0.025821451 0.0041838204
-0.047304206 0.051395666 0.012029866 0.025660055 -0.031947486 -0.00017318739 0.040589765 0.0032864036

net.2.weight f4 [128, 256]
00000000: 82f7 883d 1571 753d f502 a53d b1ef f23b
00000010: e93f 953d 91be 613c a87d e93c f92e b4bc
00000020: 0b16 0bbd 9c7f 7b3d 7fe3 dcbc e664 e83c
00000030: ac14 ef3c 994d 2f3c c941 f1bc afa9 6d3c
00000040: 1e97 023d 3856 093d 632a 5bbd 2a5b 6b3b
00000050: 282e 45bd 6b4a f4bc 0c0b 6d3d ee1a 04bd
00000060: a87e 3b3d e3e9 2e3d aa69 50bd a699 e33c
00000070: 8385 213c f82f e33c bfe2 3ebb 2de0 28bd
00000080: 66a3 123d 77c0 6c3d e978 b3ba f3fa cb3c
00000090: 5a2a 513d 46db 713d db98 223d ec27 b4bc
000000a0: 7723 853d a5ba 113d d665 283c d1cd e23c
000000b0: 0b56 02bd 98ce 623d 99bc 49bd 8fbe b53c
000000c0: 58ef 49bd 356b 01bd 837a b23c e01a 2bbb
000000d0: 38b7 17bd 1ba0 8fbd d2f9 9c3d c539 993c
000000e0: 406c 893c 03b0 2fbb 388a 593c c6cd 04bd
000000f0: 650d 8dbc 90a8 0f3d 4e78 823d 7de4 953d
00000100: b347 fa3c 266b 7d3c e005 e2bc 5cbb 64bd
00000110: 86e9 c8bb fba9 65bd 0282 68bd e33d 73bd
00000120: eb1e 423d 703e 8cbc 557e 68bd 8ede 62bd
00000130: 6c7a 27bd d8cb 9e3c 486a 7cbd 095c 5b3d
00000140: a5a9 7cbd c97d 443d aef8 5dbc ea8a 253d
00000150: 4492 5fbd f01d 373d 0c7d 6fbd bcb6 33bc
00000160: c707 d33c 9af9 923d 55d9 42bd 7369 2ebd
00000170: ef6a 1a3d 41f9 083d ae56 8ebc 8f2d 7ebc
00000180: 60eb 74bc fa54 7abd bf3f 0dbd fc71 a4bc
00000190: e5ee ec3c b17f 963d e6a7 7c3d 75f9 88bc
000001a0: a502 2abd 5bfa 86bd 0252 2fbd 3a51 223d
000001b0: 8fba f7bb aa49 98bd 127d deba 291e babc
000001c0: eb80 2e3d ccf0 d2bc fa12 a73d c676 083d
000001d0: d7b8 31bd f62f 12bd edf4 173d 0c2c 443d
000001e0: 5988 ec3b f356 8f3c 68fc 3b3d 22df 983d
000001f0: d1ba 51bd 2934 f3bc a8e1 33bd 6523 38bc
00000200: f246 25bb 514a 70bd 014c 4a3d 792a 9b3d
00000210: f59a 1bbd 51f4 d4bc 22cb 663c 69fd 42bd
00000220: b2bd 96bc 0675 8b3b 6c80 1ebd d022 5d3d
00000230: 0f66 85bd 49a2 3b3d 13d7 5c3d 7774 a63c
00000240: d2fa 073d aec0 2d3d e88b a93d 2647 13bc
00000250: 1af8 8d3c e2cf 47bd 1d56 233b aaa5 5ebc
00000260: 363d 43bd 8072 773d 4ca5 853c 9f17 5ebc
00000270: 7d02 bebc faa2 193d 063e 5b3d a72d 6c3d
00000280: 4942 26bc 0e1e 6fbd 6c99 e63b 1db5 0a3d
00000290: c61c 223d 0d34 1ebd 1b5d 50bc 3a4c 8f3c
000002a0: d0e0 63bd 908f 9f3c a467 17bd a114 1f3d
000002b0: e350 663c 9127 cdbc e499 4e3c 5d55 95bc
000002c0: 049b 093d 1c97 1ebd 0c58 d33c fa34 c2ba
000002d0: abe9 7d3d 1246 73bd c0ac b13d 0c4a 233d
000002e0: c490 013b cfb5 643d 393e 85bd 6141 f13c
000002f0: 13df 11bc 0bf7 313c a694 30bd 0e9f 093c
00000300: b5a5 013d 991b 12bd 57d2 23bc 2e87 c9bc
00000310: 22df 8f3d 6f6b e53b aac6 833d 9667 a6bc
00000320: 4309 a93d 53a3 343d c114 7fbd 5fa0 c53c
00000330: ad41 1bbb 02ca c63c 8408 b1bc 715f 343d
00000340: 8168 993d 7251 6fbd 1a95 7cbc c9bf 24bd
00000350: c8c8 6e3d edd6 e23c 384c 803c 5d9c 993d
00000360: a28a 203d 0806 18bd 8825 82bb 6464 75bc
00000370: 81bb d03b b20a 263d 8829 433d 2dab 7e3d
00000380: 65e8 dbbc 16e8 65bc 58a2 193d aa9a b53c
00000390: 5427 f53c dec9 553b c0e4 e2bc 5892 48bd
000003a0: 40b3 71bd 6432 043c 6c1f bdbc ae51 5cba
000003b0: ab4f 5d3d 1e66 803d 8fdc ac3c c734 f53b
000003c0: 1258 203d d6b8 57bd 9760 023d 3f68 1abd
000003d0: db99 b33c 000a 413d 72a0 643d c214 873d
000003e0: ff8b 373d fa3e 613d 7d06 233c 4d6a 3d3d
000003f0: 6569 dbb9 3a89 123d 28d1 03bd 933c e23c
0.06687833 0.059922297 0.08057205 0.0074138273 0.072875805 0.013778345 0.0285023 -0.021995055
-0.03395657 0.061400995 -0.026963947 0.028368425 0.029184662 0.010699653 -0.029450314 0.014505788
0.031882398 0.03352949 -0.05350722 0.0035912492 -0.04813972 -0.029820642 0.057871863 -0.032252245
0.045775086 0.04270352 -0.05088202 0.027783226 0.009858492 0.027732834 -0.002912685 -0.041229416
0.03580036 0.057800736 -0.001369265 0.024899935 0.05106578 0.059047006 0.039696556 -0.021991692
0.06500905 0.03557839 0.010278186 0.027686032 -0.03182034 0.055372804 -0.049252126 0.022185592
-0.04930052 -0.03159638 0.021786934 -0.0026108548 -0.037039965 -0.070129596 0.07664837 0.018704304
0.01677525 -0.0026807792 0.013277583 -0.032422803 -0.017218301 0.035072863 0.063706025 0.07318971
0.030551767 0.015467441 -0.027590692 -0.055842742 -0.006131354 -0.05607031 -0.05676461 -0.05938519
0.047392767 -0.017119616 -0.056761105 -0.055388026 -0.040888235 0.01938431 -0.061624795 0.05355457
-0.061685223 0.04797152 -0.013548059 0.040415682 -0.05458285 0.044706285 -0.058468863 -0.01096886
0.025760544 0.07176514 -0.047570545 -0.042581033 0.037699636 0.033440832 -0.017375316 -0.015513792
-0.014948696 -0.061116196 -0.03448462 -0.020073883 0.028922508 0.07348574 0.061683558 -0.016720513
-0.04150643 -0.0659072 -0.042802818 0.039628245 -0.0075600813 -0.07435925 -0.001697453 -0.02271946
0.042603415 -0.025749587 0.08157916 0.033316396 -0.043389168 -0.03569027 0.037098814 0.04789357
0.0072184023 0.017497515 0.04589501 0.07464434 -0.051203553 -0.029687958 -0.043916374 -0.011238907
-0.0025219289 -0.058664624 0.04938889 0.075764604 -0.037989575 -0.025995405 0.014086517 -0.047604952
-0.018401 0.0042558936 -0.03869669 0.053988278 -0.06513607 0.045809064 0.05391605 0.020319207
0.033198185 0.04242008 0.08278638 -0.008989131 0.017330218 -0.048782237 0.0024923154 -0.013589302
-0.047665797 0.06041193 0.016314171 -0.013555436 -0.023194546 0.037508942 0.053525947 0.057660725
-0.01014764 -0.05837827 0.0070373323 0.03386413 0.03957822 -0.03862386 -0.012717511 0.017492402
-0.05563432 0.019477636 -0.036964074 0.038838033 0.014057371 -0.02504328 0.012609933 -0.018229181
0.0335951 -0.038718328 0.02579882 -0.0014816814 0.06199042 -0.059392996 0.086755276 0.03986554
0.0019770125 0.05583745 -0.06506009 0.02945012 -0.008903283 0.010862122 -0.043110512 0.008399738
0.03165217 -0.03567085 -0.009998879 -0.024600592 0.07024981 0.0070013325 0.064343765 -0.020313065
0.0825372 0.04410107 -0.06227565 0.024124322 -0.002369027 0.024266247 -0.021610506 0.044036333
0.07490636 -0.05842728 -0.015416408 -0.040221963 0.05829695 0.027690375 0.015661344 0.07500527
0.03919471 -0.037115127 -0.003971759 -0.014977548 0.0063700085 0.040537544 0.04764703 0.062174965
-0.026844213 -0.014032384 0.03750834 0.022168476 0.02992598 0.0032621543 -0.027696967 -0.04896769
-0.059008837 0.008068655 -0.023086272 -0.0008404505 0.054031055 0.06269477 0.021101264 0.007483098
0.03914649 -0.052666508 0.031830397 -0.037697073 0.02192395 0.047128677 0.055817075 0.06595756
0.044811245 0.0549917 0.009950277 0.046243954 -0.0004184946 0.0357754 -0.03218189 0.027616775

net.2.bias f4 [128]
00000000: 206d 3c3d 67f6 153d 1f58 923d b8cc 343d
00000010: d8e6 39bd 80f0 17bd 0c23 e3bc 79f0 983c
00000020: efab ca3c ea6d 553d 1b33 52bd 7a39 833d
00000030: 948f 533d d0b3 0c3d 1a27 15bd 0491 cd3c
00000040: 0f6b df3c d8a6 d23c 8a84 503d 2847 513d
00000050: 0e68 193c e9e8 173d ec43 0dbd 61af b93c
00000060: a841 97bc 51dd 843c 4bdb 7c3c 063a d93c
00000070: e8fe b3bc 3dd1 88bc dfac 4b3d 6363 34bc
00000080: de86 d33c 7fad 573d 6499 d2bc b547 ebbb
00000090: 2a88 28bd 9caa 77bd b7ad c83c 8769 833a
000000a0: af49 083d 48f2 64bc eb1c e03c 217b abba
000000b0: 30da 60bc 1dff e1bb 2a7d 3cbd 70c7 913d
000000c0: d24e 663d 8006 e5bc 0975 903d f158 a43d
000000d0: 815f 593d fe2a 2cbd 2d97 f93a fe3a 4c3d
000000e0: d149 2d3d 6868 3ebd daef a23c db4d 863d
000000f0: d82b 1fbd 95ca 6b3d c88a 60bc 9825 dcbc
00000100: dad1 833d 4da8 68bd 0262 043d 2fe2 30bd
00000110: af29 223d 445f f63c 260b b93c 348e 0cbd
00000120: 2656 27bd 324c 333d 169b a33c caf8 37bd
00000130: eae5 463d 527a b83c 16de 65bd 59a4 0cbb
00000140: 1098 113d b119 153d 5fe7 813d 50ec 06bd
00000150: fe9d 37bd d203 64bd 580d a13c e468 753d
00000160: b565 083d 0d4c de3c 5995 3f3b 5c56 44bd
00000170: 0409 27bd b7d2 53bb f5f0 4b3d 3071 16bb
00000180: f5eb 873a bf55 7b3d c0aa 43bd 7c87 32bd
00000190: 7f02 923d aaa9 bfbb 6adf 5bbd 7f95 c43c
000001a0: 1833 333d d2c1 c03c 9e99 403a c423 003d
000001b0: fcaa 36bd ca86 2d3d fd3c 683d baf9 d33c
000001c0: a616 903d e295 4fbd e4e9 dcbc db53 5bba
000001d0: be44 67bd a05e 4cbd c731 4fbc 6695 e93b
000001e0: 770e 8e3d 36d6 13bd b817 15bd 98fc 483d
000001f0: cc14 89bc b091 5c3d a53d 933d c0a6 dfbc
0.046002507 0.03661194 0.07145714 0.044140548 -0.045386165 -0.037094593 -0.027726673 0.018669354
0.024740187 0.052106775 -0.05131827 0.06407447 0.0516506 0.03435117 -0.036414243 0.025093563
0.02727273 0.025714323 0.05090765 0.05109325 0.0093631875 0.037087355 -0.034488603 0.022666635
-0.018463925 0.016218813 0.015433143 0.026516926 -0.021972135 -0.016701335 0.04972541 -0.011010024
0.025821146 0.052655693 -0.025707908 -0.007180179 -0.04114548 -0.06046544 0.024496896 0.0010025956
0.033273395 -0.01397378 0.02735754 -0.001308296 -0.013723895 -0.006896867 -0.046017803 0.07118118
0.056227513 -0.027957201 0.07053573 0.08024777 0.053069595 -0.042033188 0.0019042246 0.049860947
0.042306725 -0.04648629 0.01988976 0.065578185 -0.038860172 0.057566244 -0.013704963 -0.026873395
0.064365104 -0.05680113 0.03232003 -0.043184455 0.039590534 0.030074723 0.022588324 -0.034315303
-0.040853642 0.043773837 0.019971412 -0.044914998 0.048559107 0.022519264 -0.05612 -0.0021460264
0.03554541 0.036401454 0.06342959 -0.03294021 -0.044828407 -0.055667706 0.019659683 0.059914485
0.03330012 0.027135873 0.0029233305 -0.04793392 -0.040780082 -0.003232164 0.04979034 -0.0022955649
0.0010370003 0.06136107 -0.04777026 -0.04358624 0.07129382 -0.005849083 -0.05367986 0.023997067
0.0437499 0.02352992 0.00073471095 0.03128411 -0.044596657 0.042364873 0.056698788 0.025875915
0.0703557 -0.05068005 -0.026966996 -0.00083666825 -0.056462042 -0.04989493 -0.012646145 0.0071284054
0.06936353 -0.03609296 -0.036399573 0.049069017 -0.01673355 0.053849876 0.07189492 -0.027301192

net.4.weight f4 [1, 128]
00000000: 9a87 1fbd 9598 293d 0339 bdbd c086 c83d
00000010: 37bb 12bd d9a4 06bc 40ba e43c 648c bdbd
00000020: 53db fa3c ce29 34bd d772 573d eec0 0ebd
00000030: 35ce 3abd 0c49 68bd d3b7 33bd 85c9 f53c
00000040: 1387 aa3d 7161 a7bd 604f 843d a292 a93d
00000050: 6143 3bbd 377d d53c 3f6c 21bd 0a29 00bd
00000060: 431b 8f3d d6e3 c6bd 883a 93bd dae7 7ebd
00000070: 26c8 2b3d b965 9b3d 4234 eb3c 4c8e ed3c
00000080: ba08 c1bd 2270 4f3d 0b09 9d3d 1533 2f3d
00000090: 39a3 6d3b 3f9c 9cba 4ecf 35bd 4f4b 893d
000000a0: 789f 2bbd 5a89 a9bc 2039 963d d6f5 9a3d
000000b0: 2590 c9bc c98c 57bd 1cf0 45bc 0694 c0bd
000000c0: 80dd 8c3d 0337 a73d 5509 c33d dfb4 04bd
000000d0: 7f0a b23d ceb2 38bd ca77 7dbd 56a5 a0bd
000000e0: 15f9 a2bd 1a8f 0fbd 509c b4bd e106 f53c
000000f0: f099 42bd e591 19bd 0ab7 d9bb 10da 053d
00000100: 1d33 d2bd 07e3 d2bb e7d3 4dbd 033a 4d3d
00000110: aaf8 59bd 9c19 a43d 1bec 783d b56e b03d
00000120: a07b 9b3d 3cc5 5e3d dcca ccbd 25a0 adbd
00000130: 669e 5d3d 7565 14bd d702 22bd f816 da3d
00000140: 4947 59bd a8ea a1bd d925 943d 19d2 72bd
00000150: 2958 f7bc f9b7 c33c f5ca 993d 46c2 183d
00000160: 25d0 82bd e333 b0bd 56de b43d ae25 86bc
00000170: e06d 643d 8497 cdbd 69e9 7dbd a4d2 2bbd
00000180: 364d c13d 7e2e dc3d a908 25bd b877 9cbd
00000190: 96dd 76bd c3a5 ed3c 84c4 29bd 71cb 31bd
000001a0: 39a1 24bd a614 a4bd 4e2a 4dbd 8ea8 a6bd
000001b0: 046e 9ebd 66bf d93d 4e2a 8ebd ec60 c83d
000001c0: 0ea6 5f3c d13d 3abd ed30 303d dca3 303c
000001d0: 2fc4 3abc 6098 77bd 00bc 713b 792e 00bd
000001e0: 0da0 bfbd 71c5 9bbc d36f 263d b592 c33d
000001f0: 44d0 83bd 80ea a43d f6e0 953d 0a5c b43d
-0.03894768 0.04140528 -0.0923939 0.097913265 -0.035823073 -0.008218014 0.027920842 -0.09255293
0.03062216 -0.04398518 0.052599754 -0.03485196 -0.04560681 -0.056710288 -0.04387648 0.030003319
0.083265446 -0.08172882 0.06460452 0.08279921 -0.045718554 0.026060684 -0.039409872 -0.031289138
0.06987622 -0.09711425 -0.07188898 -0.06223283 0.041938923 0.075877614 0.028711442 0.028998516
-0.094254926 0.050644048 0.076677404 0.042773325 0.0036260618 -0.001194842 -0.044387154 0.06703817
-0.041900128 -0.020695377 0.073351145 0.07566421 -0.024604866 -0.052624498 -0.012081172 -0.09403233
0.06878185 0.081647895 0.09523264 -0.032399055 0.08693408 -0.045092396 -0.061881818 -0.07844035
-0.07957665 -0.03504858 -0.08818877 0.029910507 -0.047510087 -0.03749265 -0.0066441344 0.032678664
-0.10263655 -0.006435755 -0.050250914 0.050104152 -0.05321566 0.08012697 0.060772043 0.08614866
0.07591939 0.054387316 -0.0999963 -0.08477811 0.05410614 -0.03622957 -0.03955349 0.10648912
-0.0530465 -0.07906085 0.07233781 -0.059282396 -0.030193405 0.023891436 0.07509414 0.03729465
-0.06387357 -0.086036466 0.0883147 -0.016375389 0.055768847 -0.10038665 -0.061990175 -0.04194893
0.09438555 0.10751055 -0.040291462 -0.07640022 -0.060269915 0.029009705 -0.041447178 -0.043406907
-0.040192816 -0.08011751 -0.050089173 -0.08137618 -0.077358276 0.106322095 -0.06941663 0.097841114
0.01365043 -0.04546911 0.04301541 0.010781255 -0.011399313 -0.06044805 0.0036885738 -0.03129432
-0.09356699 -0.019015046 0.040633988 0.095494665 -0.06436208 0.0805254 0.073182985 0.088066176
